tests/max/graph/testdata/example_data_1.safetensors (safetensors, 588 bytes, 2 tensors)

1.b f8 [1, 2, 3]
3.5 3.5 3.5 3.5 3.5 3.5
00000000: 0000 0000 0000 0c40 0000 0000 0000 0c40
00000010: 0000 0000 0000 0c40 0000 0000 0000 0c40
00000020: 0000 0000 0000 0c40 0000 0000 0000 0c40

1.a i4 [5, 2]
0 1 2 3 4 5 6 7
8 9
00000000: 0000 0000 0100 0000 0200 0000 0300 0000
00000010: 0400 0000 0500 0000 0600 0000 0700 0000
00000020: 0800 0000 0900 0000
